models/nn.pth (torch, 60459 bytes, 5 tensors)

weight f4 [128, 45]
-0.05347243 -0.046922814 0.06443715 0.14839123 -0.10363899 0.09967397 -0.13222569 0.113997065
-0.055682074 0.14501116 -0.09666487 0.13396183 0.052722156 0.11025066 0.09422161 0.13941035
0.02722863 0.008638875 0.08907053 -0.029696716 0.047366206 0.15754817 0.046545997 -0.112761475
0.06906944 -0.09630369 0.0047901627 0.13436978 0.10208176 0.11512091 -0.15314454 0.08052971
-0.10482131 -0.08628436 -0.09428213 0.06635167 -0.073612235 0.046650983 0.08519638 -0.13686638
-0.13161221 -0.082042575 -0.13218157 0.009988973 -0.034048762 0.04664247 -0.08865344 -0.0060685207
-0.10911716 -0.11588642 0.11588088 0.03509103 -0.006910249 0.06531208 0.09232557 0.07350018
0.0025867268 0.09844928 0.06328816 -0.0414333 -0.10176161 0.06350195 -0.10970231 0.013392938
0.10877024 -0.012716537 0.0011362993 0.017106894 0.00031426703 -0.14052677 -0.13355955 0.07394258
0.00015157508 0.14410059 0.13729244 0.113999456 -0.11739091 0.00018875419 -0.02279046 0.060066275
-0.09589688 0.10468606 0.006957214 -0.11083164 -0.0135923 0.0840884 -0.05873296 0.058606
-0.07762686 0.0163035 0.0068776407 0.13030018 0.08600537 -0.055115487 -0.11657675 -0.06766176
-0.14860545 -0.1160643 -0.0010949868 -0.057757623 -0.054757874 0.014521252 0.08119852 -0.11782847
0.040421765 0.0030805771 0.0991896 -0.14649154 -0.119317114 -0.06425485 -0.07605619 0.05506581
0.05791503 -0.033535138 -0.12755543 -0.019526634 -0.040564958 -0.04703653 -0.16150965 0.12801692
0.058224753 0.071160346 0.08470845 0.09149287 0.10478138 -0.14920196 0.056675877 0.063496575
-0.10743634 -0.0976203 -0.15168639 0.05769504 -0.12945023 0.010495379 0.001995938 -0.08202765
-0.05510735 0.09950827 -0.060016394 -0.025205636 -0.07595135 0.16014446 -0.026893739 -0.15474938
0.07630118 0.10852987 -0.08301611 -0.073145725 0.010577248 -0.055394936 0.10587605 0.08576444
-0.11797865 -0.09664886 -0.05761356 -0.03747194 0.0059881485 -0.12934208 0.073178805 -0.12107365
-0.08358998 -0.009652917 0.14231022 -0.10534052 0.05093578 0.15105332 -0.013683384 -0.15765901
-0.08394485 -0.105361655 0.09653153 -0.0869058 0.088835575 -0.06473579 0.12577635 0.08352708
-0.09169197 0.05441086 -0.016636845 0.08378603 -0.05566778 0.084646784 0.062557995 0.040325925
-0.04640293 0.14026085 -0.02135136 -0.0352756 -0.0016360336 0.01682953 0.10429846 -0.12238773
0.13644104 0.007464518 0.045390226 0.10505729 0.10098738 0.13481058 -0.010526942 -0.13328223
0.014967331 0.046968903 -0.053979177 -0.12828235 -0.07093923 -0.046103187 0.13334669 0.10009391
0.06938705 -0.106391154 -0.05724264 -0.012146163 0.029545644 0.12439596 0.03810492 -0.08595248
0.056455374 -0.03488029 0.04812226 0.0488988 0.13676484 0.048765313 0.0051458064 -0.02372348
-0.08501271 0.086073376 0.13813636 -0.04394799 0.13086985 0.027424516 -0.08899975 -0.1258203
0.15703484 0.037697032 -0.05246723 -0.12521352 0.020744078 -0.13909394 0.052365318 0.008316396
-0.040681843 -0.14457719 -0.02287816 -0.020860374 -0.12689194 0.04735325 -0.057646982 -0.15800986
-0.04019086 0.092242055 0.061674617 0.08391737 0.15747309 0.095812276 0.0066526276 -0.021318577
00000000: e805 5bbd 2332 40bd a0f7 833d dff3 173e
00000010: ae40 d4bd de21 cc3d 2c66 07be 4b77 e93d
00000020: e312 64bd ce7d 143e 3bf8 c5bd 4a2d 093e
00000030: 30f3 573d 19cb e13d 42f7 c03d 96c1 0e3e
00000040: 930e df3c 118a 0d3c 9c6a b63d 8746 f3bc
00000050: 1103 423d 4f54 213e 04a7 3e3d 7def e6bd
00000060: 4774 8d3d de3a c5bd ccf6 9c3b 3b98 093e
00000070: 3e10 d13d 83c4 eb3d ecd1 1cbe c3ec a43d
00000080: 8eac d6bd dbb5 b0bd fd16 c1bd 62e3 873d
00000090: 03c2 96bd 1a15 3f3d 717b ae3d b326 0cbe
000000a0: 5ac5 06be f005 a8bd 9b5a 07be caa8 233c
000000b0: b776 0bbd 2d0c 3f3d ef8f b5bd 71da c6bb
000000c0: d178 dfbd dc55 edbd f452 ed3d 9dbb 0f3d
000000d0: 5f6f e2bb 57c2 853d 3015 bd3d 4387 963d
000000e0: 1386 293b c79f c93d 399d 813d f7b5 29bd
000000f0: 6468 d0bd 4f0d 823d 9bab e0bd 0e6e 5b3c
00000100: eec2 de3d 0659 50bc e1ef 943a c223 8c3c
00000110: 35c4 a439 40e6 0fbe d6c3 08be 356f 973d
00000120: 20f0 1e39 1b8f 133e 6496 0c3e 8c78 e93d
00000130: a56a f0bd 51ec 4539 0fb3 babc 0e08 763d
00000140: 9565 c4bd a565 d63d 57f9 e33b b3fb e2bd
00000150: 3db2 5ebc 8a36 ac3d f991 70bd d80c 703d
00000160: d5fa 9ebd eb8e 853c d55d e13b 696d 053e
00000170: 9523 b03d c7c0 61bd cbbf eebd 4092 8abd
00000180: 072c 18be 1fb3 edbd a985 8fba 4293 6cbd
00000190: cb49 60bd 8cea 6d3c 694b a63d 0e50 f1bd
000001a0: 4b91 253d 82e3 493b eb23 cb3d e101 16be
000001b0: 885c f4bd 0c98 83bd 59c3 9bbd b08c 613d
000001c0: 4f38 6d3d 245c 09bd e49d 02be 52f6 9fbc
000001d0: 7127 26bd 60a9 40bd c962 25be de16 033e
000001e0: 147d 6e3d 84bc 913d a07b ad3d 9d60 bb3d
000001f0: 9f97 d63d 66c8 18be f724 683d 7e0a 823d
00000200: 9507 dcbd 27ed c7bd ad53 1bbe a251 6c3d
00000210: 9a8e 04be cff4 2b3c 48ce 023b 1dfe a7bd
00000220: 3fb8 61bd feca cb3d c0d3 75bd 0d7c cebc
00000230: 628c 9bbd e9fc 233e 4250 dcbc 9f76 1ebe
00000240: cb43 9c3d e944 de3d 5a04 aabd 6dcd 95bd
00000250: 324c 2d3c cde5 62bd 8bd5 d83d 44a5 af3d
00000260: ca9e f1bd d6ef c5bd 32fc 6bbd 2d7c 19bd
00000270: 3b38 c43b 4072 04be c5de 953d 76f5 f7bd
00000280: 3931 abbd 4527 1ebc c5b9 113e c5bc d7bd
00000290: 09a2 503d b9ad 1a3e 4630 60bc 5d71 21be
000002a0: 47eb abbd dac7 d7bd 53b2 c53d abfb b1bd
000002b0: 6def b53d 3394 84bd 84cb 003e 3f10 ab3d
000002c0: 00c9 bbbd ecdd 5e3d fe49 88bc 0398 ab3d
000002d0: e603 64bd 4b5b ad3d 681e 803d cc2c 253d
000002e0: 0011 3ebd 8aa0 0f3e 0ce9 aebc 267d 10bd
000002f0: 2e70 d6ba 15de 893c 6e9a d53d 6ba6 fabd
00000300: 33b7 0b3e ea98 f43b 1aeb 393d 4728 d73d
00000310: 79d2 ce3d c90b 0a3e 3279 2cbc 237b 08be
00000320: 8939 753c 7762 403d 4519 5dbd 735c 03be
00000330: 9648 91bd b2d6 3cbd 098c 083e 09fe cc3d
00000340: cc1a 8e3d 9be3 d9bd 4277 6abd b300 47bc
00000350: b509 f23c 4fc3 fe3d e813 1c3d db07 b0bd
00000360: c03d 673d a3de 0ebd d91b 453d 1c4a 483d
00000370: 150c 0c3e 23be 473d 279e a83b be57 c2bc
00000380: 251b aebd 3d47 b03d 9e73 0d3e cf02 34bd
00000390: bf02 063e 61a9 e03c 8045 b6bd 09d7 00be
000003a0: becd 203e 3468 1a3d e1e7 56bd f937 00be
000003b0: 7cef a93c a46e 0ebe 047d 563d 7e41 083c
000003c0: 01a2 26bd 0b0c 14be fb6a bbbc 60e3 aabc
000003d0: f6ef 01be 7bf5 413d 3e1f 6cbd 56cd 21be
000003e0: 2c9f 24bd 67e9 bc3d 869e 7c3d dfdc ab3d
000003f0: a040 213e 3a39 c43d 49fe d93b 4ca4 aebc

bias f4 [128]
-0.053029247 0.062283058 -0.08717394 0.106853686 -0.11692498 0.098385096 0.13338923 0.043889552
0.07887934 0.009594206 0.0054107313 0.089465745 -0.10956655 -0.1330469 -0.10795278 -0.11864977
0.07159518 -0.11333211 0.15209465 -0.056661434 0.056114044 0.0140684135 0.055224493 0.15380354
0.12155859 -0.13720524 0.02621749 0.05976976 0.1126345 -0.10549727 -0.12099046 -0.127343
-0.109219454 -0.023105605 0.035055373 -0.069439985 -0.12418795 -0.12061046 -0.07426977 0.13182864
-0.03290799 0.14211553 0.04973563 0.122454725 -0.09866764 -0.03543967 0.09811319 -0.14041309
0.12775661 -0.11582093 -0.04602937 -0.12356981 -0.14839682 -0.026184682 0.14690076 0.04884956
0.12000315 -0.019629724 -0.012775289 -0.045521315 0.1287246 0.058789913 -0.09327743 -0.06438155
0.11978688 -0.07810709 0.04380893 0.089856796 0.116433956 -0.037566718 0.07732211 -0.014556826
-0.11405917 0.0040651313 -0.0027343617 -0.037215278 0.11632904 0.08996229 0.09278582 0.024210429
0.11822279 0.038138 -0.03464401 0.13659243 0.14379156 0.15150155 -0.010316718 0.12558773
-0.026450433 0.011250976 0.12274755 0.064104035 -0.10327994 -0.0012898638 -0.044391844 0.054956306
-6.655682e-05 -0.013118448 -0.014387741 -0.07297304 0.07694618 0.043292016 0.07121011 0.12635262
-0.048761882 -0.008541165 -0.022841802 0.0034798635 -0.07102441 -0.090823576 -0.028311942 -0.14452268
0.10694049 -0.095892444 0.11411657 -0.12321309 0.036204066 0.08721915 -0.1417087 -0.1456415
0.026021391 0.11789815 -0.027580013 0.113282375 -0.09644302 0.09058139 0.050166745 -0.09278521
00000000: 3235 59bd 851c 7f3d 4088 b2bd 1bd6 da3d
00000010: 5d76 efbd 207e c93d 3097 083e 88c5 333d
00000020: 7e8b a13d 0431 1d3c 814c b13b d139 b73d
00000030: 6d64 e0bd 723d 08be 5916 ddbd a7fe f2bd
00000040: 7ea0 923d aa1a e8bd b3be 1b3e d215 68bd
00000050: d7d7 653d 347f 663c 1433 623d ad7e 1d3e
00000060: b6f3 f83d 887f 0cbe 10c6 d63c 23d1 743d
00000070: ebac e63d f40e d8bd d9c9 f7bd 3466 02be
00000080: 73ae dfbd f747 bdbc 3996 0f3d 8d36 8ebd
00000090: 4056 febd 9e02 f7bd c01a 98bd 16fe 063e
000000a0: 87ca 06bd bc86 113e 97b7 4b3d 8bc9 fa3d
000000b0: 4212 cabd 3029 11bd 91ef c83d 73c8 0fbe
000000c0: a1d2 023e 8633 edbd 4b89 3cbd 2b12 fdbd
000000d0: 56f5 17be 4281 d6bc 276d 163e 7a16 483d
000000e0: 36c4 f53d 84ce a0bc 724f 51bc 8f74 3abd
000000f0: 62d0 033e b1cd 703d 3d08 bfbd 79da 83bd
00000100: d352 f53d 9cf6 9fbd fe70 333d d706 b83d
00000110: ed74 ee3d 8fdf 19bd 0e5b 9e3d c17f 6ebc
00000120: db97 e9bd cb34 853b fa32 33bb 0c6f 18bd
00000130: eb3d ee3d 263e b83d 7e06 be3d f354 c63c
00000140: ca1e f23d 9736 1c3d e1e6 0dbd e3de 0b3e
00000150: 183e 133e 3923 1b3e 7407 29bc 129a 003e
00000160: 94ae d8bc 0356 383c 1163 fb3d fa48 833d
00000170: 6f84 d3bd a610 a9ba 39d4 35bd dd19 613d
00000180: 6c94 8bb8 c2ee 56bc 8fba 6bbc e472 95bd
00000190: f595 9d3d f852 313d 9bd6 913d 9562 013e
000001a0: 8aba 47bd 3ef0 0bbc bb1e bbbc 6c0e 643b
000001b0: 3f75 91bd b601 babd 72ee e7bc c1fd 13be
000001c0: 9e03 db3d 4263 c4bd f3b5 e93d 2557 fcbd
000001d0: b74a 143d f49f b23d 161c 11be 0c23 15be
000001e0: d02a d53c 9674 f13d 7bef e1bc 9700 e83d
000001f0: eb83 c5bd bc82 b93d a57b 4d3d 2c06 bebd

weight f4 [64, 128]
0.020852337 -0.03505117 0.0060589574 -0.07971356 -0.07360542 -0.037639152 -0.0042503243 0.07890058
-0.007863357 0.000894492 -0.06049257 -0.021153085 -0.007122741 -0.039091036 0.0140996 -0.024792533
0.017549546 -0.04129821 0.05248116 -0.0388065 0.0034561334 -0.045480456 -0.007747103 0.06753562
-0.04278813 0.03215257 -0.056843814 0.03617429 -0.0007975096 -0.035572603 0.031288 -0.02774203
-0.09293259 0.011016808 -0.096398525 0.044097964 -8.014122e-05 -0.07532791 0.07741508 0.06716662
0.011693968 -0.016963925 -0.03271428 0.08289726 0.028510202 -0.06653428 0.0772152 0.027526174
-0.03329487 0.070342645 -0.049272645 -0.03659253 0.00577962 -0.042699467 -0.06199463 -0.04627668
-0.004621229 0.028835883 0.04567705 -0.0654824 -0.049749598 0.08523904 -0.07097425 0.011541736
0.05356507 0.07626816 0.004024639 -0.07125739 0.0072649056 -0.03830156 -0.058783226 -0.0069289925
-0.063603 0.009676285 0.032445494 0.033868086 -0.05952715 -0.07790315 0.0532872 0.021383716
0.035485562 0.073365286 -0.06215519 -0.026151888 -0.019394048 0.06411582 0.05052755 -0.048150904
0.019005619 -0.050881155 0.026108798 0.042410005 0.03779564 0.055871595 0.08899695 0.019214144
0.08932319 0.030992355 -0.04495711 0.03767172 0.08067582 -0.002940612 -0.0221529 -0.048557777
0.07898864 0.023771198 -0.045255754 0.07540563 0.042497154 0.080625154 -0.00018893571 0.0671934
0.037985746 0.054823957 0.031799834 -0.0063849785 0.0673414 -0.05370078 0.015116379 -0.0064859586
-0.07354272 -0.064682074 -0.10162984 0.06170749 0.0009962374 0.030010557 0.007960798 0.05736118
-0.090327516 -0.052213572 0.058020085 0.08349525 0.020141164 -0.0037521422 0.021955218 -0.085424416
-0.07627905 0.0046874178 0.07914111 -0.038187467 -0.02663125 0.003432151 0.09147578 0.043163326
0.03968867 0.08468304 0.09075684 0.051926587 0.0035062167 0.063293986 0.01739639 -0.06473839
-0.039187394 -0.037209015 0.015791263 0.08518351 -0.0013082331 -0.058968212 -0.07426074 0.0048152544
-0.038229063 -0.026697263 0.0066627334 0.043821573 -0.05202835 -0.0038237073 -0.031321026 0.00714113
-0.0539129 -0.012658403 0.038204845 0.06511873 -0.027493244 0.069419056 -0.039531972 -0.019692237
0.0031698877 -0.02707929 0.0627799 -0.018285632 -0.056775883 0.024376635 -0.021474235 0.009446338
-0.086857036 0.06469214 -0.07955906 0.07245756 -0.002104165 0.042486753 0.056112517 -0.041712765
-0.064401075 0.018457778 0.04119322 0.10360829 -0.071083836 -0.058844876 -0.03488875 -0.030910414
0.0084160585 0.028529514 -0.084286585 -0.069479816 0.023548605 0.076505676 -0.033530124 0.05465737
-0.044775356 0.07803539 0.065229975 -0.02037921 0.08033768 -0.041839182 0.06832497 -0.07513819
-0.06518148 0.01574461 -0.013962521 0.08283221 0.052773867 -0.040650755 -0.05884243 0.03463606
-0.055963762 0.06477241 -0.056390252 0.04323848 0.028748961 0.08288322 0.06927685 0.059903447
-0.049202237 -0.0064937747 -0.015207928 0.02647709 0.02326768 -0.039501507 0.09072125 -0.063770615
0.07966101 0.033835717 0.06097174 -0.015738228 -0.03237646 0.092280746 -0.018540187 0.00862119
0.02098608 0.019179245 -0.079209395 0.038663805 -0.060075242 -0.0662748 -0.049794804 -0.067191236
00000000: 85d2 aa3c d191 0fbd 388a c63b dd40 a3bd
00000010: 70be 96bd 832b 1abd 4e46 8bbb a196 a13d
00000020: 4fd5 00bc 587c 6a3a 0fc7 77bd 3c49 adbc
00000030: e265 e9bb ec1d 20bd 0202 673c b619 cbbc
00000040: 11c4 8f3c 5028 29bd 7cf6 563d 91f3 1ebd
00000050: 4c80 623b b749 3abd 69db fdbb 1d50 8a3d
00000060: 9b42 2fbd 6ab2 033d 0fd5 68bd 7e2b 143d
00000070: f70f 51ba 94b4 11bd d927 003d 4143 e3bc
00000080: 7153 bebd d87f 343c 976c c5bd 11a0 343d
00000090: 7d11 a8b8 8545 9abd cc8b 9e3d a78e 893d
000000a0: 0f98 3f3c eef7 8abc 69ff 05bd 0ac6 a93d
000000b0: 3a8e e93c 2043 88bd 0123 9e3d 927e e13c
000000c0: 3460 08bd ce0f 903d 1dd2 49bd 0ce2 15bd
000000d0: f762 bd3b a3e5 2ebd 15ee 7dbd 9e8c 3dbd
000000e0: ae6d 97bb 3b39 ec3c dc17 3b3d a31b 86bd
000000f0: 3cc6 4bbd ce91 ae3d f35a 91bd 8d19 3d3c
00000100: 0c67 5b3d 7b32 9c3d 1ee1 833b 65ef 91bd
00000110: 720e ee3b 19e2 1cbd aec6 70bd 9a0c e3bb
00000120: 4a42 82bd 4889 1e3c 91e5 043d 43b9 0a3d
00000130: bed2 73bd b08b 9fbd ae43 5a3d e72c af3c
00000140: 4f59 113d 8a40 963d 7196 7ebd 7c3c d6bc
00000150: 44e0 9ebc 284f 833d faf5 4e3d e239 45bd
00000160: acb1 9b3c c268 50bd 1ee2 d53c 1db6 2d3d
00000170: 9acf 1a3d 9dd9 643d 0844 b63d fb66 9d3c
00000180: 14ef b63d aee3 fd3c f224 38bd a94d 1a3d
00000190: 5d39 a53d 48b7 40bb 007a b5bc 85e4 46bd
000001a0: ccc4 a13d d1bb c23c 195e 39bd 446e 9a3d
000001b0: 7f11 2e3d cd1e a53d 0b1d 46b9 b19c 893d
000001c0: f196 1b3d 168f 603d 8b40 023d 1539 d1bb
000001d0: 4aea 893d 59f5 5bbd b0aa 773c 2a88 d4bb
000001e0: 919d 96bd 0978 84bd 4e23 d0bd fec0 7c3d
000001f0: 2e94 823a b3d8 f53c 026e 023c 8ff3 6a3d
00000200: a2fd b8bd e6dd 55bd 78a6 6d3d 8fff aa3d
00000210: 15ff a43c 80e6 75bb 6edb b33c fff2 aebd
00000220: 3138 9cbd e998 993b bc14 a23d 766a 1cbd
00000230: c729 dabc f0ed 603b a757 bb3d 07cc 303d
00000240: 9690 223d 4d6e ad3d b9de b93d f9b0 543d
00000250: 8ec8 653b 47a0 813d e082 8e3c 9095 84bd
00000260: f682 20bd 7b68 18bd ae5c 813c b174 ae3d
00000270: 0579 abba a788 71bd 0416 98bd 48c9 9d3b
00000280: 1496 1cbd 38b4 dabc 0f53 da3b 407e 333d
00000290: ae1b 55bd 2a97 7abb 7a4a 00bd 2400 ea3b
000002a0: c6d3 5cbd 3165 4fbc af7c 1c3d f85c 853d
000002b0: 8339 e1bc 942b 8e3d 47ec 21bd 9d51 a1bc
000002c0: e4bd 4f3b 63d5 ddbc c092 803d c0cb 95bc
000002d0: d48d 68bd 82b1 c73c bcea afbc d0c4 1a3c
000002e0: 1ae2 b1bd 507d 843d dcef a2bd a164 943d
000002f0: 08e6 09bb 9706 2e3d 3dd6 653d 01db 2abd
00000300: b6e4 83bd c434 973c 39ba 283d 9530 d43d
00000310: 6794 91bd 5307 71bd 82e7 0ebd d637 fdbc
00000320: 82e3 093c bab6 e93c 729e acbd 6f4b 8ebd
00000330: 01e9 c03c 02af 9c3d e256 09bd 68e0 5f3d
00000340: 5d66 37bd 05d1 9f3d 4b97 853d 4df2 a6bc
00000350: 1588 a43d 905f 2bbd f6ed 8b3d 0de2 99bd
00000360: de7d 85bd d7fa 803c 0fc3 64bc efa3 a93d
00000370: 6929 583d 6881 26bd c304 71bd 8bde 0d3d
00000380: 423a 65bd 66a7 843d 77f9 66bd d51a 313d
00000390: f182 eb3c adbe a93d 05e1 8d3d 515d 753d
000003a0: 4988 49bd bbc9 d4bb ac2a 79bc 7be6 d83c
000003b0: dd9b be3c 55cc 21bd 10cc b93d 2b9a 82bd
000003c0: 5025 a33d 5297 0a3d 81bd 793d 75ed 80bc
000003d0: 2e9d 04bd b0fd bc3d 97e1 97bc e43f 0d3c
000003e0: 00eb ab3c cb1d 9d3c 8938 a2bd f05d 1e3d
000003f0: 7511 76bd 15bb 87bd a3f5 4bbd 8f9b 89bd

bias f4 [64]
-0.056101214 -0.018827189 0.050995883 0.08284738 0.022582924 0.010516075 -0.038358074 -0.051258244
0.014910896 -0.036811896 0.057877023 -0.0073172157 -0.085422285 -0.07960344 0.018378658 0.06615179
0.0070047555 -0.016930915 0.046189796 -0.02793124 0.05421169 0.053421136 -0.0475734 -0.03052756
-0.045977674 0.07815384 -0.08359073 -0.090078436 -0.00095763785 -0.038394913 -0.08896394 0.013432158
-0.056672454 -0.07130656 -0.06205804 0.01686127 0.0038336122 0.030387426 -0.042159937 0.070406504
-0.041636072 -0.054264862 0.0460664 -0.048033535 -0.089865305 -0.024849236 0.029080942 0.095822565
0.04331596 -0.08079195 0.07505696 -0.04980241 0.005191403 -0.057437 0.05422853 0.033234816
-0.04538541 0.023716286 -0.050379828 0.040631026 -0.023419514 0.06273886 -0.038656704 -0.057956953
00000000: 63ca 65bd 7a3b 9abc 0fe1 503d e3ab a93d
00000010: d3ff b83c 9e4b 2c3c 5b1d 1dbd 2af4 51bd
00000020: d54c 743c 12c8 16bd 7510 6d3d 41c5 efbb
00000030: e1f1 aebd 2107 a3bd d78e 963c 977a 873d
00000040: 2688 e53b b4b2 8abc 8331 3d3d 0ed0 e4bc
00000050: 140d 5e3d 1fd0 5a3d 53dc 42bd ef14 fabc
00000060: 1653 3cbd 1f0f a03d 9e31 abbd 0b7b b8bd
00000070: fd09 7bba fc43 1dbd ba32 b6bd 8e12 5c3c
00000080: 6021 68bd 2c09 92bd 9230 7ebd a520 8a3c
00000090: 573d 7b3b 0def f83c e6af 2cbd 4931 903d
000000a0: 968a 2abd d544 5ebd 1fb0 3c3d d0be 44bd
000000b0: 4d0b b8bd a090 cbbc 283b ee3c 9f3e c43d
000000c0: 136c 313d 4076 a5bd 77b7 993d 9dfd 4bbd
000000d0: a51c aa3b 0f43 6bbd bc1e 5e3d 3b21 083d
000000e0: 0de6 39bd a848 c23c 145b 4ebd b86c 263d
000000f0: 48da bfbc 3b7d 803d 7e56 1ebd 4564 6dbd

weight f4 [1, 64]
0.046038277 0.13231376 -0.051482473 0.029045567 -0.08724249 -0.11053339 0.084864944 -0.057803072
0.04502932 -0.05211371 0.11951014 0.07656553 -0.0724669 0.11961781 0.10191849 0.09749669
-0.029085848 0.0770423 -0.079462565 0.09472256 -0.08781892 -0.082404666 0.04976511 -0.14125548
-0.01525917 0.051510487 0.09831582 -0.015961032 -0.069956124 0.095956214 0.05188868 0.13336155
-0.11944507 0.035050955 0.047313295 0.07975278 0.09056186 -0.058326844 0.06783175 -0.008767084
0.085459806 -0.0012032724 0.06485713 -0.11575554 0.035998728 -0.099022254 0.08308376 0.063248985
-0.0581355 0.046000272 -0.02032008 -0.09090272 -0.1159114 -0.030303841 0.123710506 0.119166635
-0.100507006 0.025805159 0.023320792 0.108589895 -0.119711496 0.0044443374 0.05741979 0.019638097
00000000: a292 3c3d 427d 073e 49df 52bd f8f0 ed3c
00000010: 31ac b2bd 545f e2bd accd ad3d eac2 6cbd
00000020: aa70 383d 3075 55bd bbc1 f43d 63ce 9c3d
00000030: 8769 94bd 2ffa f43d a4ba d03d 58ac c73d
00000040: 7245 eebc 5ac8 9d3d 45bd a2bd e7fd c13d
00000050: 68da b3bd c7c3 a8bd 80d6 4b3d 47a5 10be
00000060: 9901 7abc a9fc 523d ce59 c93d b6c0 82bc
00000070: 2845 8fbd b184 c43d 3989 543d ee8f 083e
00000080: 9e9f f4bd 9791 0f3d 96cb 413d 6d55 a33d
00000090: 7f78 b93d 21e8 6ebd 5feb 8a3d d1a3 0fbc
000000a0: 8d05 af3d 1fb7 9dba d1d3 843d 3e11 edbd
000000b0: 6773 133d 2ecc cabd d227 aa3d af88 813d
000000c0: 7d1f 6ebd c86a 3c3d 4c76 a6bc 352b babd
000000d0: f562 edbd c33f f8bc ef5b fd3d a30d f43d
000000e0: 9ed6 cdbd 5765 d33c 3f0b bf3c 6164 de3d
000000f0: 4d2b f5bd cea1 913b 0431 6b3d 13e0 a03c
